v2_0_ai_correction/models/residual_model.pt (torch, 15663 bytes, 7 tensors)

network.0.weight f4 [64, 4]
000000 a3 85 79 3d 4f ff 8d 3e fe a0 af bd 17 8f 53 3e
       0.06091846 0.27733847 -0.08575629 0.20660053
000010 80 e3 23 be b1 be e6 3e cf 3d 0b 3e b7 06 a6 3c
       -0.16004753 0.4506736 0.13597797 0.020266874
000020 57 ba 9f 3e 65 ad aa bd fa 7c 19 3e 6e e6 a1 3e
       0.31196854 -0.08333854 0.14989081 0.31621116
000030 26 03 00 3f 48 4a 5e 3e dd 8b 73 3e d0 00 d8 3d
       0.50004804 0.21708024 0.23783822 0.1054703
000040 04 92 ad 3e df 00 ac 3e 55 f6 7e 3e ac 1e ec 3e
       0.33900464 0.33594415 0.24898656 0.4611715
000050 8e 0a ac be 50 bb 33 bd 40 41 64 bc f0 4c 87 bd
       -0.33601803 -0.043879807 -0.013931572 -0.066064715
000060 c8 00 58 be 6f f9 85 3e 73 e6 23 be 22 22 b3 bb
       -0.21094048 0.26166865 -0.16005878 -0.0054667154
000070 1c 0b de be cb 68 cc 3e 21 fa 2f 3e b8 6e 60 3d
       -0.4336785 0.399237 0.1718526 0.05479309
000080 08 93 94 bd 68 e5 b5 3e d2 12 81 be ba 19 d5 be
       -0.072546065 0.35526586 -0.2520967 -0.4162119
000090 6d d0 ef 3d 79 f6 a6 be 68 66 00 3f 65 94 64 3e
       0.11709676 -0.3260992 0.5015626 0.22322233
0000a0 2a 65 af be 62 0f aa 3e 32 a9 f9 3e a2 c2 b1 be
       -0.3425687 0.3321486 0.48761898 -0.34718806
0000b0 94 13 96 be 18 f4 fd bd 00 23 f8 bb 82 f1 ad be
       -0.29311812 -0.12400073 -0.0075725317 -0.33973318
0000c0 50 33 91 be 31 89 4f be 1d 0d 5b be 25 bf 81 3d
       -0.2835946 -0.20267178 -0.21391721 0.06335286
0000d0 b6 be a6 be c8 80 9e be a5 a8 60 bd 74 ac a9 3d
       -0.32567376 -0.30957627 -0.054848332 0.08284846
0000e0 ca 2c c6 3e a0 c7 f2 be d1 d0 90 3e 15 fc b0 3e
       0.38706046 -0.47417927 0.28284314 0.34567323
0000f0 4e 3c de 3e 19 2b a4 be c9 33 14 be 6f 83 05 3e
       0.43405384 -0.3206413 -0.1447288 0.13038419
000100 00 08 89 3e 20 63 e8 3d e4 69 f4 3e 4a fd b4 be
       0.26763916 0.113470316 0.47737038 -0.35349494
000110 00 44 f1 be 2c d6 37 3e c8 70 af 3d 7e f1 9d be
       -0.47122192 0.17952794 0.08566433 -0.30848306
000120 51 2d 09 3e ba d6 cf be 8a dd d9 3d e3 b6 ad 3e
       0.13396193 -0.4059351 0.10637958 0.33928594
000130 70 8a 07 bd 78 b5 43 3e 90 09 a8 3d 9c 73 5d be
       -0.03309101 0.19112194 0.08204949 -0.21626133
000140 80 c8 f7 bc 18 5d 8a bd 40 41 33 3d 0c 56 94 be
       -0.030246973 -0.067560375 0.0437634 -0.289719
000150 8c 34 03 3d 16 da aa 3e 62 f1 a8 be e0 7c c9 3e
       0.032032534 0.3336951 -0.3299666 0.39353085
000160 2d 2c f6 3e 60 9c f1 3c 9e f6 d4 be 71 e5 ca be
       0.48080578 0.02949351 -0.41594404 -0.39628175
000170 60 b9 4b 3d 40 b3 ad 3c a8 51 cb 3e ec a5 3e be
       0.049737334 0.021203637 0.39710736 -0.18617982
000180 06 62 d6 be 80 74 7f 3e 6c a6 ef 3e e6 db 8c be
       -0.4187166 0.24946785 0.46806657 -0.2751152
000190 8e a1 b7 3d ac f7 15 3e fa ce 85 3d ea 00 86 3e
       0.08966361 0.1464526 0.06533618 0.26172572
0001a0 4c b1 c5 be 4e f8 81 be e0 5e 86 bc fa 1b f9 be
       -0.3861183 -0.25384754 -0.016402662 -0.48654157
0001b0 0c 59 89 be af e0 08 bb fb 06 e5 be c3 9c 64 3d
       -0.2682575 -0.0020885875 -0.44731888 0.055813562
0001c0 8c 7b 02 3e 82 41 f9 bd 9d fb 20 3e 65 f1 dc 3e
       0.12742442 -0.12170698 0.15720983 0.4315292
0001d0 83 0d d6 3e 06 09 00 3f 42 57 f4 bd c2 68 99 bd
       0.41807184 0.5001377 -0.119307056 -0.07490684
0001e0 88 fa 36 be e8 01 fc be f4 fa 17 3e ca 36 a2 be
       -0.17869008 -0.49220204 0.14841825 -0.31682426
0001f0 34 0e b4 3e 9b 48 73 3e 68 c1 b0 be cd 4d d9 3e
       0.35167086 0.23758166 -0.34522557 0.4244217
000200 6e 3f 9d bd a1 93 2a 3d ad 0c 2c bb ac 37 cd 3e
       -0.07678114 0.041644696 -0.0026252673 0.40081537
000210 12 e6 03 bf 5c 9b e3 be ca 79 b7 bd ed 53 b1 3e
       -0.51522934 -0.44454467 -0.08958776 0.34634343
000220 da 98 b0 be 98 98 9a bd ec bf bf be 00 2e f6 3b
       -0.34491616 -0.07548636 -0.37451112 0.007512808
000230 f4 f8 b9 3e 30 d8 02 bf 09 7d 39 3d 7a dc ad be
       0.3632275 -0.51111126 0.04528526 -0.33957273
000240 2b fc c9 be 1d b6 78 3e ad 79 93 be 52 db d5 3e
       -0.394502 0.2428822 -0.2880377 0.4176889
000250 d1 52 8d 3c e7 31 b4 3e 20 f8 73 be ce 84 0f 3e
       0.017251404 0.35194322 -0.23825121 0.14015505
000260 7d 82 f5 3e bd a7 b4 3e 08 29 fa bd 26 fe f2 bd
       0.47951117 0.35284224 -0.12214857 -0.11864881
000270 5c 9c cd be e0 57 a4 be 20 94 a4 3c 32 d3 ea be
       -0.40158355 -0.32098293 0.020090163 -0.45864254
000280 d4 f9 eb be 38 55 66 be dd d2 ec bd 15 16 c7 3d
       -0.4608904 -0.22493446 -0.115636565 0.09721009
000290 29 ed d2 3c fa 6a 69 be 39 83 c2 be 7b ae 7d 3e
       0.025747852 -0.22794715 -0.3799074 0.2477359
0002a0 4e 09 78 3e 17 ed 91 bc 87 a5 3c 3e df de 8f 3e
       0.242223 -0.017813249 0.18422519 0.28099725
0002b0 c8 e7 38 be 64 be d0 ba d0 79 3a 39 8f f8 da 3e
       -0.18057168 -0.0015925881 0.00017783721 0.4276776
0002c0 74 28 02 be e0 cb b9 bc f4 64 5b 3e 2c 49 90 be
       -0.12710744 -0.022680223 0.2142523 -0.28180826
0002d0 6e fa b1 3e e1 cb 68 3e bb 4a b2 3d 11 fc d0 bd
       0.34761375 0.22734024 0.0870566 -0.10204328
0002e0 bf b0 fe 3e a5 95 54 be 98 71 92 be db d3 59 3e
       0.49744222 -0.2076021 -0.2860229 0.21272223
0002f0 3b 14 09 3e 3e 6b e7 be 9a 47 ad 3d 8e ac 92 3e
       0.13386624 -0.45199007 0.084609225 0.28647274
000300 ac 08 91 3e a5 85 dd be e6 04 c7 be 0c fd 27 3c
       0.2832693 -0.43266025 -0.38870925 0.010253202
000310 1e a7 27 be 11 25 95 3e 77 2a 02 be 04 ee 9d 3e
       -0.16372344 0.29129842 -0.12711512 0.30845654
000320 9a 01 c1 be b0 8f af 3d 70 97 8c 3e 60 d4 1a be
       -0.37696534 0.08572328 0.27459288 -0.15120077
000330 60 8e 17 bd 6e 22 8e 3e 28 1c 91 be 3c 9d bc be
       -0.037001014 0.27760643 -0.28341794 -0.3683871
000340 2b 91 36 be a7 1e a6 be 92 68 03 3f 42 ad c1 3e
       -0.17828815 -0.3244526 0.51331437 0.37827498
000350 ae 5b 5b be 8a db 55 3e 5d 8f 4e 3e 7e 4c 3a 3e
       -0.21421692 0.20884529 0.20171876 0.18193242
000360 d0 9b 3f bd 3e 6f f2 be 94 e2 aa be 40 16 b8 3c
       -0.046779454 -0.47350496 -0.3337599 0.022471547
000370 16 da b7 bd b9 82 95 3b 58 13 e3 be 82 a2 98 3d
       -0.089771435 0.0045627025 -0.44350696 0.07452871
000380 98 67 49 be 40 da 73 3e 6c 3b 95 be 8a 9b e5 be
       -0.19668424 0.23813725 -0.29146898 -0.4484523
000390 77 8c b5 3e 64 2f 73 3e ea 4a 3b 3e b5 36 9c be
       0.3545873 0.23748547 0.18290296 -0.30510488
0003a0 21 9d 5d bd 2d 9c 91 3e f4 7b 36 3d 2c aa 96 3e
       -0.054104928 0.28439465 0.044551805 0.29426706
0003b0 fd 46 dd 3c fd db 84 3d af 38 cc be 20 96 8b 3d
       0.027011389 0.06487272 -0.39886996 0.068157434
0003c0 45 b8 10 bc 40 3b d5 be c0 a5 d7 3e 1e 3c 85 3e
       -0.008832996 -0.41646767 0.42118645 0.26022428
0003d0 7d f1 87 3e 4f 22 ba 3e 41 4b 02 bf da f4 af be
       0.26551428 0.363543 -0.5089608 -0.34366494
0003e0 7d d2 bb 3e 27 48 df bd bc a7 cd be 3c 1f a8 bd
       0.36684027 -0.10902434 -0.40167034 -0.082090825
0003f0 44 43 82 be 11 60 f1 be b2 50 2e 3e d2 b1 b1 3e
       -0.25441945 -0.47143605 0.1702297 0.3470598

network.0.bias f4 [64]
000000 63 bc a6 3d c9 98 3e 3e ba 98 eb be d3 b3 1d 3d
       0.08141401 0.1861297 -0.4601496 0.038501572
000010 b8 39 17 3e 44 36 f0 be 8c bb 15 bd 07 fc 80 3e
       0.14768112 -0.469164 -0.03655581 0.25192282
000020 4c 46 0f 3e 42 d6 b4 3d d8 2f 99 bd b8 40 27 3e
       0.1399166 0.08829929 -0.074798286 0.16333282
000030 77 54 8e 3e 8c fb 13 be 38 42 1e be 8f 13 73 3e
       0.27798817 -0.14451426 -0.15454948 0.2373793
000040 d4 9f 66 be 10 61 65 be ae aa a4 be cc 31 1d 3e
       -0.22521907 -0.22400308 -0.32161468 0.15351027
000050 3c b7 dd be 24 10 5a 3d af 27 be 3e 00 fd ae bc
       -0.4330386 0.05323805 0.3713965 -0.021360874
000060 7c 6e 92 be e8 3b 03 3e 46 52 9a be 6b 12 ba be
       -0.28599918 0.12815821 -0.30140895 -0.36342177
000070 48 a0 c1 bd e5 fa ce 3e 8c 6f e1 3e 1a 78 08 bd
       -0.09454399 0.40425792 0.44030416 -0.033317663
000080 be 6b a8 3e ab bf b5 bd 00 21 63 bb 2f f7 0e 3d
       0.328947 -0.088744484 -0.003465712 0.0349037
000090 08 7a 5c bd 66 a6 1a be 22 f9 a2 3e 98 db c0 bd
       -0.053827316 -0.15102538 0.31830698 -0.09416884
0000a0 be fb b1 3e 81 5c d8 3e 06 a5 ef 3d 58 9f 81 3e
       0.34762377 0.42258075 0.117013976 0.25316882
0000b0 68 11 ba 3e 58 63 f5 be 0b 84 5f be ee 8f 38 bd
       0.36341405 -0.47927356 -0.21827714 -0.045059137
0000c0 9a 67 22 3e 8d ff 6d 3e 0c 03 c9 be 58 40 86 3e
       0.15859833 0.23242016 -0.39260137 0.26220965
0000d0 20 90 b0 3d c5 1f 60 be 7a 49 9a be 77 ef d6 be
       0.0862124 -0.21887119 -0.30134183 -0.41979572
0000e0 68 86 60 3e 3b 8c 83 be 6b ef 89 3e a4 98 8f be
       0.21926272 -0.25692925 0.26940474 -0.28046143
0000f0 44 36 c9 3e ba 74 7d 3e 99 e0 c8 3c c1 19 00 bf
       0.39299214 0.24751559 0.024521159 -0.500393

network.3.weight f4 [32, 64]
000000 1f cf f8 3c 4f af 90 bd 1a 99 9e 3d ab 7f 9d bd
       0.0303722 -0.070646875 0.077440456 -0.07690366
000010 88 dc 3e 3d 44 a7 01 3d 08 48 9e bd 6f b0 ad 3d
       0.046597034 0.031653658 -0.077285826 0.08480918
000020 98 0d 3b 3d 90 5b cb bc 60 a4 e0 3b 28 72 f8 bd
       0.04566726 -0.024823934 0.0068555325 -0.121311486
000030 2a 0d 39 bd 68 33 cb bb 46 d7 ec bb f1 06 58 3c
       -0.04517857 -0.0062011965 -0.007227811 0.013185249
000040 08 eb 55 3d 08 de 80 bc bc b4 94 3d cc 5b 0f 3d
       0.052226096 -0.015730873 0.07261035 0.034999654
000050 76 00 d3 3d 1a bf a4 3d 8e e3 ae 3d c0 0f f9 bb
       0.10302822 0.08044262 0.08539496 -0.0076007545
000060 c8 d6 05 3d 42 4d 66 bd f8 bc 5f bd fc 33 4c bd
       0.032675534 -0.056226023 -0.054623574 -0.049854264
000070 a9 16 c5 3c d8 f3 fb bc 80 cf f5 3a d9 50 ab bc
       0.024058657 -0.030755922 0.0018753856 -0.020912575
000080 26 fb 26 3d 86 d7 01 bd 18 98 5e 3d 1d d4 3a bd
       0.040766858 -0.03169968 0.054344267 -0.045612443
000090 e5 94 18 bd 40 64 d5 bb c1 05 d2 3d 10 fa 40 3c
       -0.037251372 -0.006512195 0.10255004 0.01177837
0000a0 47 00 c6 3d 83 9e 93 3a e3 1b ed 3d b0 2d ca 3d
       0.09668022 0.001126245 0.115775846 0.098719954
0000b0 a2 2a 94 bd be 24 ae bd b7 bd dd bd aa c9 dd 3d
       -0.07234694 -0.08503102 -0.10827201 0.1082948
0000c0 a2 7f c9 3d 99 4a 45 3d 4a 8e bc 3d 00 d1 29 3d
       0.09838797 0.048166845 0.09206827 0.041459084
0000d0 77 ca 3e 3d d8 4e 10 be b4 1d f4 3d bf 29 39 3b
       0.046579804 -0.14092577 0.11919728 0.0028253642
0000e0 6c 0c e1 3d 07 c9 d9 3d 78 63 06 be f8 03 07 be
       0.109886974 0.10634046 -0.13123882 -0.13185108
0000f0 b4 33 e2 bd 7e 26 71 3d 8d d5 a2 bc 0f 0f 5b bd
       -0.11045018 0.0588746 -0.01987722 -0.053481158
000100 03 8d ac 3d f7 b8 a3 bd 57 d7 54 3d 63 9d 40 3d
       0.08425333 -0.079942636 0.051963177 0.047025096
000110 0d db 48 3d 30 6f 84 3c 2e 6a cb bd d9 cb 53 3d
       0.049037028 0.0161663 -0.099323615 0.051708076
000120 a0 19 18 3d df de be 3d 74 62 09 bd 36 5a e9 3d
       0.037133813 0.09319853 -0.033541158 0.113941595
000130 a8 74 73 bd c1 00 d2 bd 91 39 38 bd e0 57 56 bd
       -0.059437424 -0.1025405 -0.044976775 -0.052329898
000140 a4 e1 88 3d 86 fe e5 bd 78 dd 5e bd 60 4d a4 bc
       0.066836625 -0.11230187 -0.054410428 -0.020056427
000150 4a 2f c8 bd eb b2 54 bd b6 2f 82 bd 58 e1 a3 bd
       -0.09774645 -0.051928442 -0.063567564 -0.08001965
000160 88 b1 62 3d 1b f5 d3 3d 1c 60 56 3d 00 da 9a bd
       0.05534509 0.103494845 0.05233775 -0.075611115
000170 83 dd 0b bc 0d 74 9b bd f6 58 d2 3d 28 ef 20 3d
       -0.008536699 -0.07590494 0.10270874 0.039290577
000180 ef 03 df 3d ec 12 9f bd 60 d4 8e bc a9 aa 72 bc
       0.10889422 -0.07767281 -0.017435253 -0.014811196
000190 43 7f e4 bc 63 19 7d bd a2 da bf bd f2 a6 fc bd
       -0.027892714 -0.06179179 -0.09367873 -0.1233653
0001a0 d4 4e 5e 3d 2d 06 06 3e 85 89 0d bd f0 05 84 3d
       0.054274395 0.13088293 -0.034554977 0.06446445
0001b0 a0 6b ee 3d 04 fb 0e 3c f6 14 74 bd 6c a1 62 bd
       0.116416216 0.008726839 -0.059590302 -0.055329725
0001c0 98 8a 31 bd da 13 c0 3d 12 a1 8b 3d 04 cf 2e bd
       -0.043345064 0.093787864 0.06817831 -0.042677894
0001d0 98 3c c2 bd 2e f6 70 bc ec 4d 15 3d 86 e1 66 3c
       -0.094842136 -0.014707131 0.036451265 0.014091855
0001e0 56 35 e7 3d 35 9e 73 3d d2 d6 88 bd 73 a6 d5 3d
       0.1128947 0.05947705 -0.06681599 0.10432138
0001f0 08 84 8a bd 5d 16 61 bd 39 07 b5 bd f1 f2 05 3e
       -0.06763464 -0.054952968 -0.08839268 0.13080956
000200 3c 6b 1e bd 30 da 80 bc de 6f 9a 3d 3a e8 97 bd
       -0.038676485 -0.01572904 0.07540868 -0.074173406
000210 fc 4f a4 bd ec 54 09 3d 42 03 9b bd cc 9c 1c bd
       -0.08023068 0.033528253 -0.07568981 -0.03823547
000220 10 4b c6 bd 00 ab 93 bc de f9 80 3d aa 0d 98 3d
       -0.09682286 -0.018025875 0.062976584 0.07424481
000230 bc 19 ba 3d 40 48 ed 3b 2a 56 a0 3d 90 2c 5a 3c
       0.0908694 0.007241279 0.078289345 0.013316289
000240 24 0b 61 bd f8 d6 d2 bc 2a 0d a3 bd 70 98 19 3c
       -0.054942265 -0.02573727 -0.07961495 0.009374723
000250 a2 1a c5 bd a4 f9 da bd 2a e2 e6 3d 52 1b f9 3d
       -0.096242204 -0.106921464 0.11273606 0.12163414
000260 5c 2a cd 3d 08 b9 cf bc 18 3b e8 3c 02 c2 f0 3d
       0.10017845 -0.025356784 0.02834849 0.11755754
000270 16 6e cb bd 68 9e e4 bc e4 3f 6b 3d 68 dc 9e bd
       -0.099331066 -0.027907565 0.057433978 -0.07756883
000280 9c 89 13 bd 00 8c 22 bc 48 00 ca bd 50 75 6e bd
       -0.036019906 -0.009921074 -0.09863335 -0.058217347
000290 0a f8 cb bd 60 fc 85 3d 80 e5 1c bc 2a 53 ff bd
       -0.09959419 0.06542277 -0.009576201 -0.12467034
0002a0 48 ed c7 bd be c3 dc bd d8 82 f2 bd a4 64 fa 3d
       -0.09762055 -0.10779522 -0.11841363 0.12226227
0002b0 58 ee 5c 3d 12 f5 9a 3d b4 c1 48 bd 8a d0 94 bd
       0.05393824 0.07566275 -0.049012855 -0.07266338
0002c0 98 6d 92 3d 40 ac a2 bb ae 11 d5 3d a6 82 e7 bd
       0.071498096 -0.0049643815 0.10403763 -0.11304216
0002d0 94 11 06 bd 80 fa 7a 3d e8 64 92 bc 34 34 eb 3d
       -0.032731608 0.06127405 -0.017870381 0.11484566
0002e0 c0 8a 13 3d 28 12 cb bd 40 f3 03 3b ba 4e a3 bd
       0.036020994 -0.099155724 0.0020134002 -0.07974
0002f0 38 c6 69 3d 94 1b 5a bd fa 26 ea 3d da 0c 8c bd
       0.0570738 -0.053248957 0.114332154 -0.06838389
000300 b1 52 a1 bd bf 70 73 ba be f5 b6 bc 65 40 e9 b9
       -0.078771 -0.0009286515 -0.022333976 -0.000444892
000310 2a d4 b9 bd fc 1b b8 bd 0c ad df 3d c8 6f 9e 3c
       -0.0907367 -0.089897126 0.10921678 0.01934041
000320 34 7d f8 3d 75 2a bf 3d b8 d1 52 bd 20 05 23 bc
       0.121332556 0.0933427 -0.051469535 -0.009949952
000330 10 36 c0 bc 75 cd c6 bd 5c ec 8d bd ce cf a2 bc
       -0.023463279 -0.097071566 -0.069298476 -0.01987448
000340 e0 be fb bd 1a f2 fd 3d 08 8e cf 3d 56 30 95 3d
       -0.12292266 0.12399693 0.10134512 0.0728461
000350 50 ec 38 3d 8c 97 cb 3d a3 20 7b bd 20 64 ec bc
       0.04514724 0.09941015 -0.06131042 -0.028856337
000360 08 79 a2 3c f4 06 b8 3d e8 c0 bd bc 7d 8d cb ba
       0.019833103 0.08985701 -0.023163274 -0.0015529838
000370 7f 6e 2d bd fb 66 09 be 3e ca 92 3d a3 be 3c bd
       -0.042341705 -0.1341819 0.07167481 -0.046080243
000380 9b 9b 11 bd 82 2c 54 bd 7c c1 80 bd 55 b8 78 3b
       -0.035548788 -0.05180026 -0.06286904 0.0037951667
000390 9a 1c 92 3d e1 65 09 bd dc c4 37 3d ae 79 eb bd
       0.071343616 -0.033544425 0.044865474 -0.11497818
0003a0 28 b3 91 bd 4d d6 71 bd 11 59 bb 3d 4c 5e 12 bd
       -0.071142495 -0.059042264 0.091478474 -0.03573446
0003b0 90 0d aa bd b0 28 ce 3d 40 bd c9 bd 54 02 bf 3d
       -0.08303368 0.10066354 -0.0985055 0.09326616
0003c0 20 ef a7 3d 34 e7 93 3d 28 4f 11 3d e0 8a ce bc
       0.08199906 0.07221833 0.03547588 -0.025212705
0003d0 4a a1 c1 bd 26 6e fa 3c bc d0 00 bd f9 96 a6 bd
       -0.094545916 0.030570101 -0.031449065 -0.081342645
0003e0 cc 34 03 bd c8 39 a9 3c 03 23 c1 3d a8 4d d8 3b
       -0.032032773 0.020657435 0.09430506 0.006601054
0003f0 a8 aa f1 bd 5b cd 04 3d 6c dd e5 3d c5 6c e4 3c
       -0.11800128 0.032422405 0.112238735 0.027883897

network.3.bias f4 [32]
000000 7f 85 44 3d 60 a4 84 bc 90 73 6d bc 8e 4b 71 bc
       0.047978874 -0.016191661 -0.014492884 -0.014727486
000010 45 f3 9b bc 28 c3 46 3c 6f d8 c7 bd 5b 0b 82 3c
       -0.019036898 0.01213149 -0.09758078 0.015874555
000020 ad f2 b1 bc e8 66 8a bd ad 40 c2 3d 3b e1 88 bd
       -0.021722162 -0.06757909 0.09484992 -0.06683584
000030 f0 f3 a1 3d 0e bf 5d 3d f8 94 7b bd af 42 69 bd
       0.079078555 0.054137282 -0.061421365 -0.05694836
000040 9c 17 65 3d 10 6b da bd 18 75 b7 bc 0d fc 95 bd
       0.05593072 -0.10664952 -0.022394702 -0.073234655
000050 b2 a4 a9 3b d0 99 9b 3b 4b df c7 bd cb 71 8e 3d
       0.005177104 0.0047485605 -0.09759387 0.06955298
000060 19 2a 40 3c 09 1a dd bc 99 2b 95 3d 7c 83 7e bd
       0.011728787 -0.026989954 0.07283706 -0.062137112
000070 b7 c0 d8 bd 57 39 f5 3c 87 db e8 bd 04 8e 88 3d
       -0.105836324 0.029934568 -0.113699965 0.06667712

network.6.weight f4 [16, 32]
000000 60 68 0b 3e 33 64 3f be 3c 7c 3d bd a6 b0 e8 bd
       0.13614035 -0.18690567 -0.046261057 -0.11361818
000010 d5 9c 83 3d ca d0 01 3e 09 d3 a9 3d ca 62 13 3e
       0.06426398 0.12677303 0.08292205 0.14393154
000020 b3 a5 12 3e e4 75 73 bc 82 49 97 bd 46 22 ca 3d
       0.14321022 -0.01485965 -0.073870674 0.098698184
000030 2a 00 ec 3d af 80 6d bd 6f 0a 81 bc e1 7c 3f 3d
       0.11523469 -0.05798405 -0.015752045 0.046749953
000040 16 08 67 3d 66 09 28 3e c2 e1 d8 bc f1 14 e0 3c
       0.056404196 0.16409835 -0.026474837 0.027353736
000050 dc d5 cf 3d 8a 38 19 be ae ab eb bd de 5f 31 be
       0.10148212 -0.14962974 -0.11507355 -0.17321727
000060 18 25 93 bc 8b 41 bf bc e8 09 0a be ac 4b 2f 3e
       -0.017962024 -0.023346683 -0.13480341 0.1711871
000070 8f 51 76 3c 89 9b 61 bc 23 2f 0d be f0 3f e4 3d
       0.0150340935 -0.013769993 -0.13787512 0.111450076
000080 fe 82 2d 3c ce d9 e7 bb b0 8c c5 3c 66 9b e6 bc
       0.010590313 -0.007075525 0.024114937 -0.028150272
000090 9d 38 bb bd c7 85 30 bd 48 1e 32 bd ee e0 1a be
       -0.091416575 -0.04309633 -0.04348591 -0.15124866
0000a0 4e 78 35 bd b8 5c eb bd 01 3c 06 3e 94 21 7f 3d
       -0.044304185 -0.11492294 0.13108827 0.062287882
0000b0 60 20 b7 3c 76 2d 26 be 24 85 d7 3c ae 6c f9 bd
       0.022354305 -0.1622828 0.026308604 -0.12178932
0000c0 24 5b a0 bd b4 1a 64 3d c7 31 f2 bd 40 f9 31 be
       -0.07829884 0.05568953 -0.118259005 -0.17380238
0000d0 83 b3 15 be 96 d6 50 3d 38 91 f2 3d 90 eb 3c ba
       -0.1461926 0.050985895 0.118441045 -0.00072067324
0000e0 b4 5b f1 3b e2 78 e7 3d a5 f3 ec bd ac 59 81 bd
       0.007365668 0.113023534 -0.11569909 -0.06315932
0000f0 1b 0f e6 bd 9c 00 bd 3d c2 b3 c5 3d b0 5c 0f be
       -0.1123335 0.09228632 0.09653427 -0.14000201
000100 e1 be 8c 3d 9c 56 28 3d 92 b0 94 3d 0a d8 67 3c
       0.06872345 0.041098222 0.072602406 0.014150629
000110 8e f5 5c bd 22 b5 a0 3d f7 a6 98 bd ac ea 22 be
       -0.053945117 0.07847048 -0.07453721 -0.15909833
000120 47 1e 0b 3e a6 20 04 be b4 2f 02 be 6e 74 da 3c
       0.13585769 -0.1290308 -0.1271351 0.026666846
000130 6e b1 d1 3d 62 07 24 be 46 cd 23 3b 77 a4 b8 bd
       0.1023892 -0.16018441 0.0024994179 -0.09015744
000140 b3 91 88 bd 47 15 df 3d ee 40 f0 bd d5 49 b8 bd
       -0.06668415 0.1089273 -0.11731134 -0.08998457
000150 24 c2 30 3e 71 d1 f9 3d a7 20 ad 3d 63 e5 ea 3a
       0.17261559 0.12198151 0.084534936 0.0017921146
000160 18 55 ad 3d 15 ae bf 3d 51 4e fc bd 8a 8a 11 be
       0.08463496 0.093593754 -0.12319625 -0.14213005
000170 e3 93 22 3d 9f f2 86 3c bb 41 08 3e 35 27 04 3d
       0.039691817 0.016473113 0.13306324 0.032263953
000180 9f 60 41 3d 99 13 39 be 3c 3c c4 bd cc 5d c0 3d
       0.047211286 -0.18073882 -0.09581801 0.0939289
000190 1d 5d 45 be d2 bb c5 bd b3 76 89 ba 68 90 0d 3e
       -0.19273801 -0.096549645 -0.0010487646 0.13824618
0001a0 8a c7 09 bd f8 1f b7 bd 60 05 33 3e e5 28 ba bc
       -0.03363756 -0.089416444 0.17482519 -0.022724578
0001b0 8c 4c 2f be f3 70 50 bd 92 03 c7 3d 8c 95 7a bd
       -0.17119044 -0.050888967 0.09717478 -0.061177775
0001c0 44 28 0e 3e 3e 5f 20 3e 34 08 20 be 6c 4f 4c 3d
       0.13882548 0.15661332 -0.15628129 0.04988043
0001d0 a2 31 9a bd ab 39 73 3c 7c b4 b1 bd 3a 59 c9 3d
       -0.07528998 0.014845292 -0.08677003 0.09831472
0001e0 7c 41 f9 3d 6e 7b 8b 3c eb 4c 26 be e1 20 15 3e
       0.12170693 0.01702663 -0.1624028 0.14563324
0001f0 8e 31 80 bd 9e 3f 0b be 4c e6 cb bd 7e 5c 8f 3c
       -0.06259452 -0.13598487 -0.09956035 0.017500158
000200 c1 b2 51 bc 4a e2 95 bd 0e ba 13 be be 9a 3b 3d
       -0.012798966 -0.07318552 -0.14426443 0.04580187
000210 6a c4 10 3e 4c 16 07 3e 88 4f d4 bd db d6 12 3e
       0.14137426 0.131921 -0.10366732 0.14339773
000220 2f c0 7e bd 6a 8e 20 be 40 4c 68 3d 50 fa f1 3d
       -0.062195 -0.15679327 0.056713343 0.118153214
000230 c0 e5 b7 3c 85 01 73 3d 94 7a e2 3d 79 a0 ec 3d
       0.02244842 0.05932762 0.11058536 0.11554045
000240 87 a0 ab bc 0b 24 23 bd d1 68 00 be 20 ef a9 bd
       -0.020950569 -0.039829295 -0.12539984 -0.082975626
000250 74 95 c6 3d d2 be df 3c 90 56 bb bd ed 9e e7 ba
       0.09696475 0.02731267 -0.0914737 -0.0017671265
000260 7b c7 02 3e 9d 4e ce 3b b4 89 a4 3d 88 97 c5 3d
       0.12771408 0.0062959925 0.08034077 0.09648043
000270 a8 f7 19 3e 83 ac cb bd a2 b0 5a 3d 8f e4 e7 bd
       0.1503588 -0.099450134 0.053391106 -0.11322891
000280 63 32 16 be 5f ac 7e 3a 0c ac 1c bd 46 3a 74 3d
       -0.14667659 0.00097150163 -0.038250014 0.059625886
000290 a7 c3 e2 3d 90 f4 cf 3d 5e 79 13 bd f3 d7 e6 bd
       0.11072474 0.101540685 -0.036004417 -0.11271658
0002a0 05 51 27 3e 55 5d c2 3c 8b 0c fa 3d fb f0 4d bd
       0.163395 0.023726145 0.12209424 -0.050278645
0002b0 a0 cd 48 3d 92 ea 96 3d 36 b7 01 be b1 49 33 3d
       0.049024224 0.073689595 -0.12667546 0.04377145
0002c0 17 be 48 3b f3 23 25 be 59 47 70 bd de cc f6 3d
       0.003063088 -0.16126995 -0.058661792 0.12050794
0002d0 0d 3a 06 3e 2b 06 8a 3c b8 13 d0 3d 39 0e a7 bd
       0.13108082 0.016848644 0.10160011 -0.0815701
0002e0 f1 90 93 3c 61 ec cf 3d ae 70 09 3e 23 f3 90 3d
       0.01801345 0.101525076 0.1342189 0.07077625
0002f0 a6 3f 1c be d3 04 9a bd eb d3 ee bb d6 db fd bd
       -0.15258655 -0.075204514 -0.007288446 -0.12395446
000300 1a f5 d9 3d 12 fb 65 3c 32 d3 12 be 3b d4 25 be
       0.106424525 0.014036911 -0.14338377 -0.16194241
000310 2d 5b fe 3d 0a 12 92 bc 17 2a be bd 87 8e 26 3e
       0.12419734 -0.017830867 -0.09285372 0.16265307
000320 8f 19 0f be b0 1b 12 3e 62 b0 cb 3d 6f d8 83 3d
       -0.13974594 0.14268374 0.09945752 0.06437766
000330 0d d3 2b be 26 de 0a be 89 d0 f1 bd 32 e2 a5 3d
       -0.16779728 -0.13561305 -0.11807353 0.08099784
000340 0a 1f 9f 3d 3d c3 1a 3d a6 e3 83 3d a3 2f 24 3d
       0.07769592 0.03778385 0.06439905 0.040084492
000350 70 7f f2 3d 22 64 86 3d 73 f1 c3 bd b4 ca 10 3e
       0.11840713 0.065620676 -0.09567537 0.14139825
000360 63 2b 1c 3e 85 d6 7b 3c 7a 6f 69 bc b5 1a 22 be
       0.15250926 0.01537097 -0.0142477695 -0.158305
000370 ed 59 1c 3e 13 07 26 be 9f 43 c1 bc 5c 9b 1a 3d
       0.15268679 -0.16213636 -0.023591815 0.03774582
000380 cc d5 ed bd ef 82 b1 3c 42 32 9a bd 80 03 1e be
       -0.11613044 0.02166888 -0.07529117 -0.15431023
000390 cd 66 10 be 9f da 97 3b d2 39 fc 3c 82 47 1c 3e
       -0.14101715 0.004634216 0.03078929 0.15261653
0003a0 15 bf dc bd 34 b4 05 3e dd b6 cf 3c 63 5e 99 3c
       -0.107786335 0.13057023 0.02535575 0.018721765
0003b0 22 46 b2 3d 13 f7 70 3d 21 b7 1f be 7f df 18 3c
       0.08704783 0.05882938 -0.15597202 0.009330629
0003c0 99 ea 0b be 7c 45 21 be 79 ba 7b 3d ac 3c c2 3d
       -0.1366371 -0.15749162 0.06145713 0.094842285
0003d0 04 6d 13 3e 21 47 ff 3d b3 e6 01 bd 40 dd 0b 3d
       0.14397055 0.12464739 -0.031714153 0.034146547
0003e0 ed f6 20 be 18 c2 d9 bd 29 c2 fc ba 49 80 c1 bd
       -0.15719195 -0.106327236 -0.0019283938 -0.094482966
0003f0 9f 5e b0 3d fa 90 ae 3d 65 92 f2 bc 84 06 9c bd
       0.086117975 0.08523746 -0.029610822 -0.0761843

network.6.bias f4 [16]
000000 99 87 3c be 76 4c 32 be 54 5a 1d be 85 1c 53 3d
       -0.18411101 -0.1741198 -0.15366489 0.05154087
000010 25 58 68 bc e5 15 45 be 7a 20 8c bc 08 53 96 bd
       -0.014181172 -0.19246633 -0.01710533 -0.07340056
000020 1f 9e 04 3e c6 ba f4 3d 43 f9 09 be 6b 8b f4 3d
       0.12950943 0.11949687 -0.13473992 0.11940654
000030 1e 2d 1c be a4 fb 2a 3d e2 9f c3 3d 61 5d 16 be
       -0.15251586 0.04174389 0.095519796 -0.14684059

network.9.weight f4 [1, 16]
000000 3c f1 04 be a4 6f ee bc 6d 3d f2 3d 31 a6 66 3e
       -0.12982649 -0.029105969 0.11828122 0.22524334
000010 31 1e 21 3e b1 09 81 bd a3 24 eb bd 3b f9 37 3e
       0.15734173 -0.063006766 -0.11481597 0.17966168
000020 87 c2 1d be 44 1d 55 bd d2 05 42 3e 43 db e3 3d
       -0.15406238 -0.052029863 0.18947533 0.11125805
000030 e2 0f 37 be 5c 7c 2a be 58 3a b9 3d e0 7e 6d 3e
       -0.17877153 -0.16649002 0.09044331 0.2319293
